{"class_name": "Model", "keras_version": "2.0.4", "config": {"name": "model_1", "layers": [{"class_name": "InputLayer", "name": "input_1", "config": {"dtype": "float32", "sparse": false, "batch_input_shape": [null, 30, 52, 52], "name": "input_1"}, "inbound_nodes": []}, {"class_name": "Conv2D", "name": "conv2d_1", "config": {"kernel_constraint": null, "use_bias": true, "bias_constraint": null, "padding": "same", "bias_initializer": {"class_name": "Zeros", "config": {}}, "data_format": "channels_first", "dilation_rate": [1, 1], "kernel_regularizer": null, "strides": [1, 1], "bias_regularizer": null, "kernel_size": [3, 3], "name": "conv2d_1", "activation": "linear", "filters": 64, "activity_regularizer": null, "trainable": true, "kernel_initializer": {"class_name": "VarianceScaling", "config": {"scale": 1.0, "mode": "fan_avg", "seed": null, "distribution": "uniform"}}}, "inbound_nodes": [[["input_1", 0, 0, {}]]]}, {"class_name": "Activation", "name": "activation_1", "config": {"name": "activation_1", "activation": "relu", "trainable": true}, "inbound_nodes": [[["conv2d_1", 0, 0, {}]]]}, {"class_name": "Conv2D", "name": "conv2d_2", "config": {"kernel_constraint": null, "use_bias": true, "bias_constraint": null, "padding": "same", "bias_initializer": {"class_name": "Zeros", "config": {}}, "data_format": "channels_first", "dilation_rate": [1, 1], "kernel_regularizer": null, "strides": [1, 1], "bias_regularizer": null, "kernel_size": [3, 3], "name": "conv2d_2", "activation": "linear", "filters": 64, "activity_regularizer": null, "trainable": true, "kernel_initializer": {"class_name": "VarianceScaling", "config": {"scale": 1.0, "mode": "fan_avg", "seed": null, "distribution": "uniform"}}}, "inbound_nodes": [[["activation_1", 0, 0, {}]]]}, {"class_name": "Activation", "name": "activation_2", "config": {"name": "activation_2", "activation": "relu", "trainable": true}, "inbound_nodes": [[["conv2d_2", 0, 0, {}]]]}, {"class_name": "Conv2D", "name": "conv2d_3", "config": {"kernel_constraint": null, "use_bias": true, "bias_constraint": null, "padding": "same", "bias_initializer": {"class_name": "Zeros", "config": {}}, "data_format": "channels_first", "dilation_rate": [1, 1], "kernel_regularizer": null, "strides": [1, 1], "bias_regularizer": null, "kernel_size": [3, 3], "name": "conv2d_3", "activation": "linear", "filters": 64, "activity_regularizer": null, "trainable": true, "kernel_initializer": {"class_name": "VarianceScaling", "config": {"scale": 1.0, "mode": "fan_avg", "seed": null, "distribution": "uniform"}}}, "inbound_nodes": [[["activation_2", 0, 0, {}]]]}, {"class_name": "Merge", "name": "merge_1", "config": {"mode_type": "raw", "mode": "sum", "dot_axes": -1, "output_shape": null, "output_shape_type": "raw", "concat_axis": -1, "name": "merge_1", "output_mask_type": "raw", "output_mask": null, "arguments": {}}, "inbound_nodes": [[["conv2d_1", 0, 0, {"mask": [null, null]}], ["conv2d_3", 0, 0, {"mask": [null, null]}]]]}, {"class_name": "Activation", "name": "activation_3", "config": {"name": "activation_3", "activation": "relu", "trainable": true}, "inbound_nodes": [[["merge_1", 0, 0, {}]]]}, {"class_name": "Conv2D", "name": "conv2d_4", "config": {"kernel_constraint": null, "use_bias": true, "bias_constraint": null, "padding": "same", "bias_initializer": {"class_name": "Zeros", "config": {}}, "data_format": "channels_first", "dilation_rate": [1, 1], "kernel_regularizer": null, "strides": [1, 1], "bias_regularizer": null, "kernel_size": [3, 3], "name": "conv2d_4", "activation": "linear", "filters": 64, "activity_regularizer": null, "trainable": true, "kernel_initializer": {"class_name": "VarianceScaling", "config": {"scale": 1.0, "mode": "fan_avg", "seed": null, "distribution": "uniform"}}}, "inbound_nodes": [[["activation_3", 0, 0, {}]]]}, {"class_name": "Activation", "name": "activation_4", "config": {"name": "activation_4", "activation": "relu", "trainable": true}, "inbound_nodes": [[["conv2d_4", 0, 0, {}]]]}, {"class_name": "Conv2D", "name": "conv2d_5", "config": {"kernel_constraint": null, "use_bias": true, "bias_constraint": null, "padding": "same", "bias_initializer": {"class_name": "Zeros", "config": {}}, "data_format": "channels_first", "dilation_rate": [1, 1], "kernel_regularizer": null, "strides": [1, 1], "bias_regularizer": null, "kernel_size": [3, 3], "name": "conv2d_5", "activation": "linear", "filters": 64, "activity_regularizer": null, "trainable": true, "kernel_initializer": {"class_name": "VarianceScaling", "config": {"scale": 1.0, "mode": "fan_avg", "seed": null, "distribution": "uniform"}}}, "inbound_nodes": [[["activation_4", 0, 0, {}]]]}, {"class_name": "Merge", "name": "merge_2", "config": {"mode_type": "raw", "mode": "sum", "dot_axes": -1, "output_shape": null, "output_shape_type": "raw", "concat_axis": -1, "name": "merge_2", "output_mask_type": "raw", "output_mask": null, "arguments": {}}, "inbound_nodes": [[["merge_1", 0, 0, {"mask": [null, null]}], ["conv2d_5", 0, 0, {"mask": [null, null]}]]]}, {"class_name": "Activation", "name": "activation_5", "config": {"name": "activation_5", "activation": "relu", "trainable": true}, "inbound_nodes": [[["merge_2", 0, 0, {}]]]}, {"class_name": "Conv2D", "name": "conv2d_6", "config": {"kernel_constraint": null, "use_bias": true, "bias_constraint": null, "padding": "same", "bias_initializer": {"class_name": "Zeros", "config": {}}, "data_format": "channels_first", "dilation_rate": [1, 1], "kernel_regularizer": null, "strides": [1, 1], "bias_regularizer": null, "kernel_size": [3, 3], "name": "conv2d_6", "activation": "linear", "filters": 64, "activity_regularizer": null, "trainable": true, "kernel_initializer": {"class_name": "VarianceScaling", "config": {"scale": 1.0, "mode": "fan_avg", "seed": null, "distribution": "uniform"}}}, "inbound_nodes": [[["activation_5", 0, 0, {}]]]}, {"class_name": "Activation", "name": "activation_6", "config": {"name": "activation_6", "activation": "relu", "trainable": true}, "inbound_nodes": [[["conv2d_6", 0, 0, {}]]]}, {"class_name": "Conv2D", "name": "conv2d_7", "config": {"kernel_constraint": null, "use_bias": true, "bias_constraint": null, "padding": "same", "bias_initializer": {"class_name": "Zeros", "config": {}}, "data_format": "channels_first", "dilation_rate": [1, 1], "kernel_regularizer": null, "strides": [1, 1], "bias_regularizer": null, "kernel_size": [3, 3], "name": "conv2d_7", "activation": "linear", "filters": 64, "activity_regularizer": null, "trainable": true, "kernel_initializer": {"class_name": "VarianceScaling", "config": {"scale": 1.0, "mode": "fan_avg", "seed": null, "distribution": "uniform"}}}, "inbound_nodes": [[["activation_6", 0, 0, {}]]]}, {"class_name": "Merge", "name": "merge_3", "config": {"mode_type": "raw", "mode": "sum", "dot_axes": -1, "output_shape": null, "output_shape_type": "raw", "concat_axis": -1, "name": "merge_3", "output_mask_type": "raw", "output_mask": null, "arguments": {}}, "inbound_nodes": [[["merge_2", 0, 0, {"mask": [null, null]}], ["conv2d_7", 0, 0, {"mask": [null, null]}]]]}, {"class_name": "Activation", "name": "activation_7", "config": {"name": "activation_7", "activation": "relu", "trainable": true}, "inbound_nodes": [[["merge_3", 0, 0, {}]]]}, {"class_name": "Conv2D", "name": "conv2d_8", "config": {"kernel_constraint": null, "use_bias": true, "bias_constraint": null, "padding": "same", "bias_initializer": {"class_name": "Zeros", "config": {}}, "data_format": "channels_first", "dilation_rate": [1, 1], "kernel_regularizer": null, "strides": [1, 1], "bias_regularizer": null, "kernel_size": [3, 3], "name": "conv2d_8", "activation": "linear", "filters": 64, "activity_regularizer": null, "trainable": true, "kernel_initializer": {"class_name": "VarianceScaling", "config": {"scale": 1.0, "mode": "fan_avg", "seed": null, "distribution": "uniform"}}}, "inbound_nodes": [[["activation_7", 0, 0, {}]]]}, {"class_name": "Activation", "name": "activation_8", "config": {"name": "activation_8", "activation": "relu", "trainable": true}, "inbound_nodes": [[["conv2d_8", 0, 0, {}]]]}, {"class_name": "Conv2D", "name": "conv2d_9", "config": {"kernel_constraint": null, "use_bias": true, "bias_constraint": null, "padding": "same", "bias_initializer": {"class_name": "Zeros", "config": {}}, "data_format": "channels_first", "dilation_rate": [1, 1], "kernel_regularizer": null, "strides": [1, 1], "bias_regularizer": null, "kernel_size": [3, 3], "name": "conv2d_9", "activation": "linear", "filters": 64, "activity_regularizer": null, "trainable": true, "kernel_initializer": {"class_name": "VarianceScaling", "config": {"scale": 1.0, "mode": "fan_avg", "seed": null, "distribution": "uniform"}}}, "inbound_nodes": [[["activation_8", 0, 0, {}]]]}, {"class_name": "Merge", "name": "merge_4", "config": {"mode_type": "raw", "mode": "sum", "dot_axes": -1, "output_shape": null, "output_shape_type": "raw", "concat_axis": -1, "name": "merge_4", "output_mask_type": "raw", "output_mask": null, "arguments": {}}, "inbound_nodes": [[["merge_3", 0, 0, {"mask": [null, null]}], ["conv2d_9", 0, 0, {"mask": [null, null]}]]]}, {"class_name": "Activation", "name": "activation_9", "config": {"name": "activation_9", "activation": "relu", "trainable": true}, "inbound_nodes": [[["merge_4", 0, 0, {}]]]}, {"class_name": "Conv2D", "name": "conv2d_10", "config": {"kernel_constraint": null, "use_bias": true, "bias_constraint": null, "padding": "same", "bias_initializer": {"class_name": "Zeros", "config": {}}, "data_format": "channels_first", "dilation_rate": [1, 1], "kernel_regularizer": null, "strides": [1, 1], "bias_regularizer": null, "kernel_size": [3, 3], "name": "conv2d_10", "activation": "linear", "filters": 64, "activity_regularizer": null, "trainable": true, "kernel_initializer": {"class_name": "VarianceScaling", "config": {"scale": 1.0, "mode": "fan_avg", "seed": null, "distribution": "uniform"}}}, "inbound_nodes": [[["activation_9", 0, 0, {}]]]}, {"class_name": "Activation", "name": "activation_10", "config": {"name": "activation_10", "activation": "relu", "trainable": true}, "inbound_nodes": [[["conv2d_10", 0, 0, {}]]]}, {"class_name": "Conv2D", "name": "conv2d_11", "config": {"kernel_constraint": null, "use_bias": true, "bias_constraint": null, "padding": "same", "bias_initializer": {"class_name": "Zeros", "config": {}}, "data_format": "channels_first", "dilation_rate": [1, 1], "kernel_regularizer": null, "strides": [1, 1], "bias_regularizer": null, "kernel_size": [3, 3], "name": "conv2d_11", "activation": "linear", "filters": 64, "activity_regularizer": null, "trainable": true, "kernel_initializer": {"class_name": "VarianceScaling", "config": {"scale": 1.0, "mode": "fan_avg", "seed": null, "distribution": "uniform"}}}, "inbound_nodes": [[["activation_10", 0, 0, {}]]]}, {"class_name": "Merge", "name": "merge_5", "config": {"mode_type": "raw", "mode": "sum", "dot_axes": -1, "output_shape": null, "output_shape_type": "raw", "concat_axis": -1, "name": "merge_5", "output_mask_type": "raw", "output_mask": null, "arguments": {}}, "inbound_nodes": [[["merge_4", 0, 0, {"mask": [null, null]}], ["conv2d_11", 0, 0, {"mask": [null, null]}]]]}, {"class_name": "Activation", "name": "activation_11", "config": {"name": "activation_11", "activation": "relu", "trainable": true}, "inbound_nodes": [[["merge_5", 0, 0, {}]]]}, {"class_name": "Conv2D", "name": "conv2d_12", "config": {"kernel_constraint": null, "use_bias": true, "bias_constraint": null, "padding": "same", "bias_initializer": {"class_name": "Zeros", "config": {}}, "data_format": "channels_first", "dilation_rate": [1, 1], "kernel_regularizer": null, "strides": [1, 1], "bias_regularizer": null, "kernel_size": [3, 3], "name": "conv2d_12", "activation": "linear", "filters": 64, "activity_regularizer": null, "trainable": true, "kernel_initializer": {"class_name": "VarianceScaling", "config": {"scale": 1.0, "mode": "fan_avg", "seed": null, "distribution": "uniform"}}}, "inbound_nodes": [[["activation_11", 0, 0, {}]]]}, {"class_name": "Activation", "name": "activation_12", "config": {"name": "activation_12", "activation": "relu", "trainable": true}, "inbound_nodes": [[["conv2d_12", 0, 0, {}]]]}, {"class_name": "Conv2D", "name": "conv2d_13", "config": {"kernel_constraint": null, "use_bias": true, "bias_constraint": null, "padding": "same", "bias_initializer": {"class_name": "Zeros", "config": {}}, "data_format": "channels_first", "dilation_rate": [1, 1], "kernel_regularizer": null, "strides": [1, 1], "bias_regularizer": null, "kernel_size": [3, 3], "name": "conv2d_13", "activation": "linear", "filters": 64, "activity_regularizer": null, "trainable": true, "kernel_initializer": {"class_name": "VarianceScaling", "config": {"scale": 1.0, "mode": "fan_avg", "seed": null, "distribution": "uniform"}}}, "inbound_nodes": [[["activation_12", 0, 0, {}]]]}, {"class_name": "Merge", "name": "merge_6", "config": {"mode_type": "raw", "mode": "sum", "dot_axes": -1, "output_shape": null, "output_shape_type": "raw", "concat_axis": -1, "name": "merge_6", "output_mask_type": "raw", "output_mask": null, "arguments": {}}, "inbound_nodes": [[["merge_5", 0, 0, {"mask": [null, null]}], ["conv2d_13", 0, 0, {"mask": [null, null]}]]]}, {"class_name": "Activation", "name": "activation_13", "config": {"name": "activation_13", "activation": "relu", "trainable": true}, "inbound_nodes": [[["merge_6", 0, 0, {}]]]}, {"class_name": "Conv2D", "name": "conv2d_14", "config": {"kernel_constraint": null, "use_bias": true, "bias_constraint": null, "padding": "same", "bias_initializer": {"class_name": "Zeros", "config": {}}, "data_format": "channels_first", "dilation_rate": [1, 1], "kernel_regularizer": null, "strides": [1, 1], "bias_regularizer": null, "kernel_size": [3, 3], "name": "conv2d_14", "activation": "linear", "filters": 64, "activity_regularizer": null, "trainable": true, "kernel_initializer": {"class_name": "VarianceScaling", "config": {"scale": 1.0, "mode": "fan_avg", "seed": null, "distribution": "uniform"}}}, "inbound_nodes": [[["activation_13", 0, 0, {}]]]}, {"class_name": "Activation", "name": "activation_14", "config": {"name": "activation_14", "activation": "relu", "trainable": true}, "inbound_nodes": [[["conv2d_14", 0, 0, {}]]]}, {"class_name": "Conv2D", "name": "conv2d_15", "config": {"kernel_constraint": null, "use_bias": true, "bias_constraint": null, "padding": "same", "bias_initializer": {"class_name": "Zeros", "config": {}}, "data_format": "channels_first", "dilation_rate": [1, 1], "kernel_regularizer": null, "strides": [1, 1], "bias_regularizer": null, "kernel_size": [3, 3], "name": "conv2d_15", "activation": "linear", "filters": 64, "activity_regularizer": null, "trainable": true, "kernel_initializer": {"class_name": "VarianceScaling", "config": {"scale": 1.0, "mode": "fan_avg", "seed": null, "distribution": "uniform"}}}, "inbound_nodes": [[["activation_14", 0, 0, {}]]]}, {"class_name": "Merge", "name": "merge_7", "config": {"mode_type": "raw", "mode": "sum", "dot_axes": -1, "output_shape": null, "output_shape_type": "raw", "concat_axis": -1, "name": "merge_7", "output_mask_type": "raw", "output_mask": null, "arguments": {}}, "inbound_nodes": [[["merge_6", 0, 0, {"mask": [null, null]}], ["conv2d_15", 0, 0, {"mask": [null, null]}]]]}, {"class_name": "Activation", "name": "activation_15", "config": {"name": "activation_15", "activation": "relu", "trainable": true}, "inbound_nodes": [[["merge_7", 0, 0, {}]]]}, {"class_name": "Conv2D", "name": "conv2d_16", "config": {"kernel_constraint": null, "use_bias": true, "bias_constraint": null, "padding": "same", "bias_initializer": {"class_name": "Zeros", "config": {}}, "data_format": "channels_first", "dilation_rate": [1, 1], "kernel_regularizer": null, "strides": [1, 1], "bias_regularizer": null, "kernel_size": [3, 3], "name": "conv2d_16", "activation": "linear", "filters": 64, "activity_regularizer": null, "trainable": true, "kernel_initializer": {"class_name": "VarianceScaling", "config": {"scale": 1.0, "mode": "fan_avg", "seed": null, "distribution": "uniform"}}}, "inbound_nodes": [[["activation_15", 0, 0, {}]]]}, {"class_name": "Activation", "name": "activation_16", "config": {"name": "activation_16", "activation": "relu", "trainable": true}, "inbound_nodes": [[["conv2d_16", 0, 0, {}]]]}, {"class_name": "Conv2D", "name": "conv2d_17", "config": {"kernel_constraint": null, "use_bias": true, "bias_constraint": null, "padding": "same", "bias_initializer": {"class_name": "Zeros", "config": {}}, "data_format": "channels_first", "dilation_rate": [1, 1], "kernel_regularizer": null, "strides": [1, 1], "bias_regularizer": null, "kernel_size": [3, 3], "name": "conv2d_17", "activation": "linear", "filters": 64, "activity_regularizer": null, "trainable": true, "kernel_initializer": {"class_name": "VarianceScaling", "config": {"scale": 1.0, "mode": "fan_avg", "seed": null, "distribution": "uniform"}}}, "inbound_nodes": [[["activation_16", 0, 0, {}]]]}, {"class_name": "Merge", "name": "merge_8", "config": {"mode_type": "raw", "mode": "sum", "dot_axes": -1, "output_shape": null, "output_shape_type": "raw", "concat_axis": -1, "name": "merge_8", "output_mask_type": "raw", "output_mask": null, "arguments": {}}, "inbound_nodes": [[["merge_7", 0, 0, {"mask": [null, null]}], ["conv2d_17", 0, 0, {"mask": [null, null]}]]]}, {"class_name": "Activation", "name": "activation_17", "config": {"name": "activation_17", "activation": "relu", "trainable": true}, "inbound_nodes": [[["merge_8", 0, 0, {}]]]}, {"class_name": "Conv2D", "name": "conv2d_18", "config": {"kernel_constraint": null, "use_bias": true, "bias_constraint": null, "padding": "same", "bias_initializer": {"class_name": "Zeros", "config": {}}, "data_format": "channels_first", "dilation_rate": [1, 1], "kernel_regularizer": null, "strides": [1, 1], "bias_regularizer": null, "kernel_size": [3, 3], "name": "conv2d_18", "activation": "linear", "filters": 64, "activity_regularizer": null, "trainable": true, "kernel_initializer": {"class_name": "VarianceScaling", "config": {"scale": 1.0, "mode": "fan_avg", "seed": null, "distribution": "uniform"}}}, "inbound_nodes": [[["activation_17", 0, 0, {}]]]}, {"class_name": "Activation", "name": "activation_18", "config": {"name": "activation_18", "activation": "relu", "trainable": true}, "inbound_nodes": [[["conv2d_18", 0, 0, {}]]]}, {"class_name": "Conv2D", "name": "conv2d_19", "config": {"kernel_constraint": null, "use_bias": true, "bias_constraint": null, "padding": "same", "bias_initializer": {"class_name": "Zeros", "config": {}}, "data_format": "channels_first", "dilation_rate": [1, 1], "kernel_regularizer": null, "strides": [1, 1], "bias_regularizer": null, "kernel_size": [3, 3], "name": "conv2d_19", "activation": "linear", "filters": 64, "activity_regularizer": null, "trainable": true, "kernel_initializer": {"class_name": "VarianceScaling", "config": {"scale": 1.0, "mode": "fan_avg", "seed": null, "distribution": "uniform"}}}, "inbound_nodes": [[["activation_18", 0, 0, {}]]]}, {"class_name": "Merge", "name": "merge_9", "config": {"mode_type": "raw", "mode": "sum", "dot_axes": -1, "output_shape": null, "output_shape_type": "raw", "concat_axis": -1, "name": "merge_9", "output_mask_type": "raw", "output_mask": null, "arguments": {}}, "inbound_nodes": [[["merge_8", 0, 0, {"mask": [null, null]}], ["conv2d_19", 0, 0, {"mask": [null, null]}]]]}, {"class_name": "Activation", "name": "activation_19", "config": {"name": "activation_19", "activation": "relu", "trainable": true}, "inbound_nodes": [[["merge_9", 0, 0, {}]]]}, {"class_name": "Conv2D", "name": "conv2d_20", "config": {"kernel_constraint": null, "use_bias": true, "bias_constraint": null, "padding": "same", "bias_initializer": {"class_name": "Zeros", "config": {}}, "data_format": "channels_first", "dilation_rate": [1, 1], "kernel_regularizer": null, "strides": [1, 1], "bias_regularizer": null, "kernel_size": [3, 3], "name": "conv2d_20", "activation": "linear", "filters": 64, "activity_regularizer": null, "trainable": true, "kernel_initializer": {"class_name": "VarianceScaling", "config": {"scale": 1.0, "mode": "fan_avg", "seed": null, "distribution": "uniform"}}}, "inbound_nodes": [[["activation_19", 0, 0, {}]]]}, {"class_name": "Activation", "name": "activation_20", "config": {"name": "activation_20", "activation": "relu", "trainable": true}, "inbound_nodes": [[["conv2d_20", 0, 0, {}]]]}, {"class_name": "Conv2D", "name": "conv2d_21", "config": {"kernel_constraint": null, "use_bias": true, "bias_constraint": null, "padding": "same", "bias_initializer": {"class_name": "Zeros", "config": {}}, "data_format": "channels_first", "dilation_rate": [1, 1], "kernel_regularizer": null, "strides": [1, 1], "bias_regularizer": null, "kernel_size": [3, 3], "name": "conv2d_21", "activation": "linear", "filters": 64, "activity_regularizer": null, "trainable": true, "kernel_initializer": {"class_name": "VarianceScaling", "config": {"scale": 1.0, "mode": "fan_avg", "seed": null, "distribution": "uniform"}}}, "inbound_nodes": [[["activation_20", 0, 0, {}]]]}, {"class_name": "Merge", "name": "merge_10", "config": {"mode_type": "raw", "mode": "sum", "dot_axes": -1, "output_shape": null, "output_shape_type": "raw", "concat_axis": -1, "name": "merge_10", "output_mask_type": "raw", "output_mask": null, "arguments": {}}, "inbound_nodes": [[["merge_9", 0, 0, {"mask": [null, null]}], ["conv2d_21", 0, 0, {"mask": [null, null]}]]]}, {"class_name": "Activation", "name": "activation_21", "config": {"name": "activation_21", "activation": "relu", "trainable": true}, "inbound_nodes": [[["merge_10", 0, 0, {}]]]}, {"class_name": "Conv2D", "name": "conv2d_22", "config": {"kernel_constraint": null, "use_bias": true, "bias_constraint": null, "padding": "same", "bias_initializer": {"class_name": "Zeros", "config": {}}, "data_format": "channels_first", "dilation_rate": [1, 1], "kernel_regularizer": null, "strides": [1, 1], "bias_regularizer": null, "kernel_size": [3, 3], "name": "conv2d_22", "activation": "linear", "filters": 64, "activity_regularizer": null, "trainable": true, "kernel_initializer": {"class_name": "VarianceScaling", "config": {"scale": 1.0, "mode": "fan_avg", "seed": null, "distribution": "uniform"}}}, "inbound_nodes": [[["activation_21", 0, 0, {}]]]}, {"class_name": "Activation", "name": "activation_22", "config": {"name": "activation_22", "activation": "relu", "trainable": true}, "inbound_nodes": [[["conv2d_22", 0, 0, {}]]]}, {"class_name": "Conv2D", "name": "conv2d_23", "config": {"kernel_constraint": null, "use_bias": true, "bias_constraint": null, "padding": "same", "bias_initializer": {"class_name": "Zeros", "config": {}}, "data_format": "channels_first", "dilation_rate": [1, 1], "kernel_regularizer": null, "strides": [1, 1], "bias_regularizer": null, "kernel_size": [3, 3], "name": "conv2d_23", "activation": "linear", "filters": 64, "activity_regularizer": null, "trainable": true, "kernel_initializer": {"class_name": "VarianceScaling", "config": {"scale": 1.0, "mode": "fan_avg", "seed": null, "distribution": "uniform"}}}, "inbound_nodes": [[["activation_22", 0, 0, {}]]]}, {"class_name": "Merge", "name": "merge_11", "config": {"mode_type": "raw", "mode": "sum", "dot_axes": -1, "output_shape": null, "output_shape_type": "raw", "concat_axis": -1, "name": "merge_11", "output_mask_type": "raw", "output_mask": null, "arguments": {}}, "inbound_nodes": [[["merge_10", 0, 0, {"mask": [null, null]}], ["conv2d_23", 0, 0, {"mask": [null, null]}]]]}, {"class_name": "Activation", "name": "activation_23", "config": {"name": "activation_23", "activation": "relu", "trainable": true}, "inbound_nodes": [[["merge_11", 0, 0, {}]]]}, {"class_name": "Conv2D", "name": "conv2d_24", "config": {"kernel_constraint": null, "use_bias": true, "bias_constraint": null, "padding": "same", "bias_initializer": {"class_name": "Zeros", "config": {}}, "data_format": "channels_first", "dilation_rate": [1, 1], "kernel_regularizer": null, "strides": [1, 1], "bias_regularizer": null, "kernel_size": [3, 3], "name": "conv2d_24", "activation": "linear", "filters": 64, "activity_regularizer": null, "trainable": true, "kernel_initializer": {"class_name": "VarianceScaling", "config": {"scale": 1.0, "mode": "fan_avg", "seed": null, "distribution": "uniform"}}}, "inbound_nodes": [[["activation_23", 0, 0, {}]]]}, {"class_name": "Activation", "name": "activation_24", "config": {"name": "activation_24", "activation": "relu", "trainable": true}, "inbound_nodes": [[["conv2d_24", 0, 0, {}]]]}, {"class_name": "Conv2D", "name": "conv2d_25", "config": {"kernel_constraint": null, "use_bias": true, "bias_constraint": null, "padding": "same", "bias_initializer": {"class_name": "Zeros", "config": {}}, "data_format": "channels_first", "dilation_rate": [1, 1], "kernel_regularizer": null, "strides": [1, 1], "bias_regularizer": null, "kernel_size": [3, 3], "name": "conv2d_25", "activation": "linear", "filters": 64, "activity_regularizer": null, "trainable": true, "kernel_initializer": {"class_name": "VarianceScaling", "config": {"scale": 1.0, "mode": "fan_avg", "seed": null, "distribution": "uniform"}}}, "inbound_nodes": [[["activation_24", 0, 0, {}]]]}, {"class_name": "Merge", "name": "merge_12", "config": {"mode_type": "raw", "mode": "sum", "dot_axes": -1, "output_shape": null, "output_shape_type": "raw", "concat_axis": -1, "name": "merge_12", "output_mask_type": "raw", "output_mask": null, "arguments": {}}, "inbound_nodes": [[["merge_11", 0, 0, {"mask": [null, null]}], ["conv2d_25", 0, 0, {"mask": [null, null]}]]]}, {"class_name": "Activation", "name": "activation_25", "config": {"name": "activation_25", "activation": "relu", "trainable": true}, "inbound_nodes": [[["merge_12", 0, 0, {}]]]}, {"class_name": "Conv2D", "name": "conv2d_26", "config": {"kernel_constraint": null, "use_bias": true, "bias_constraint": null, "padding": "same", "bias_initializer": {"class_name": "Zeros", "config": {}}, "data_format": "channels_first", "dilation_rate": [1, 1], "kernel_regularizer": null, "strides": [1, 1], "bias_regularizer": null, "kernel_size": [3, 3], "name": "conv2d_26", "activation": "linear", "filters": 1, "activity_regularizer": null, "trainable": true, "kernel_initializer": {"class_name": "VarianceScaling", "config": {"scale": 1.0, "mode": "fan_avg", "seed": null, "distribution": "uniform"}}}, "inbound_nodes": [[["activation_25", 0, 0, {}]]]}, {"class_name": "Activation", "name": "activation_26", "config": {"name": "activation_26", "activation": "tanh", "trainable": true}, "inbound_nodes": [[["conv2d_26", 0, 0, {}]]]}], "output_layers": [["activation_26", 0, 0]], "input_layers": [["input_1", 0, 0]]}, "backend": "tensorflow"}