{"backend": "tensorflow", "class_name": "Model", "keras_version": "2.0.4", "config": {"output_layers": [["activation_26", 0, 0]], "layers": [{"config": {"batch_input_shape": [null, 3, 52, 52], "name": "input_1", "sparse": false, "dtype": "float32"}, "name": "input_1", "inbound_nodes": [], "class_name": "InputLayer"}, {"config": {"dilation_rate": [1, 1], "bias_initializer": {"class_name": "Zeros", "config": {}}, "kernel_size": [3, 3], "data_format": "channels_first", "bias_constraint": null, "strides": [1, 1], "bias_regularizer": null, "name": "conv2d_1", "trainable": true, "use_bias": true, "kernel_constraint": null, "activity_regularizer": null, "filters": 64, "padding": "same", "kernel_initializer": {"class_name": "VarianceScaling", "config": {"distribution": "uniform", "mode": "fan_avg", "seed": null, "scale": 1.0}}, "kernel_regularizer": null, "activation": "linear"}, "name": "conv2d_1", "inbound_nodes": [[["input_1", 0, 0, {}]]], "class_name": "Conv2D"}, {"config": {"name": "activation_1", "trainable": true, "activation": "relu"}, "name": "activation_1", "inbound_nodes": [[["conv2d_1", 0, 0, {}]]], "class_name": "Activation"}, {"config": {"dilation_rate": [1, 1], "bias_initializer": {"class_name": "Zeros", "config": {}}, "kernel_size": [3, 3], "data_format": "channels_first", "bias_constraint": null, "strides": [1, 1], "bias_regularizer": null, "name": "conv2d_2", "trainable": true, "use_bias": true, "kernel_constraint": null, "activity_regularizer": null, "filters": 64, "padding": "same", "kernel_initializer": {"class_name": "VarianceScaling", "config": {"distribution": "uniform", "mode": "fan_avg", "seed": null, "scale": 1.0}}, "kernel_regularizer": null, "activation": "linear"}, "name": "conv2d_2", "inbound_nodes": [[["activation_1", 0, 0, {}]]], "class_name": "Conv2D"}, {"config": {"name": "activation_2", "trainable": true, "activation": "relu"}, "name": "activation_2", "inbound_nodes": [[["conv2d_2", 0, 0, {}]]], "class_name": "Activation"}, {"config": {"dilation_rate": [1, 1], "bias_initializer": {"class_name": "Zeros", "config": {}}, "kernel_size": [3, 3], "data_format": "channels_first", "bias_constraint": null, "strides": [1, 1], "bias_regularizer": null, "name": "conv2d_3", "trainable": true, "use_bias": true, "kernel_constraint": null, "activity_regularizer": null, "filters": 64, "padding": "same", "kernel_initializer": {"class_name": "VarianceScaling", "config": {"distribution": "uniform", "mode": "fan_avg", "seed": null, "scale": 1.0}}, "kernel_regularizer": null, "activation": "linear"}, "name": "conv2d_3", "inbound_nodes": [[["activation_2", 0, 0, {}]]], "class_name": "Conv2D"}, {"config": {"name": "merge_1", "mode": "sum", "arguments": {}, "dot_axes": -1, "output_mask_type": "raw", "mode_type": "raw", "output_shape_type": "raw", "output_shape": null, "concat_axis": -1, "output_mask": null}, "name": "merge_1", "inbound_nodes": [[["conv2d_1", 0, 0, {"mask": [null, null]}], ["conv2d_3", 0, 0, {"mask": [null, null]}]]], "class_name": "Merge"}, {"config": {"name": "activation_3", "trainable": true, "activation": "relu"}, "name": "activation_3", "inbound_nodes": [[["merge_1", 0, 0, {}]]], "class_name": "Activation"}, {"config": {"dilation_rate": [1, 1], "bias_initializer": {"class_name": "Zeros", "config": {}}, "kernel_size": [3, 3], "data_format": "channels_first", "bias_constraint": null, "strides": [1, 1], "bias_regularizer": null, "name": "conv2d_4", "trainable": true, "use_bias": true, "kernel_constraint": null, "activity_regularizer": null, "filters": 64, "padding": "same", "kernel_initializer": {"class_name": "VarianceScaling", "config": {"distribution": "uniform", "mode": "fan_avg", "seed": null, "scale": 1.0}}, "kernel_regularizer": null, "activation": "linear"}, "name": "conv2d_4", "inbound_nodes": [[["activation_3", 0, 0, {}]]], "class_name": "Conv2D"}, {"config": {"name": "activation_4", "trainable": true, "activation": "relu"}, "name": "activation_4", "inbound_nodes": [[["conv2d_4", 0, 0, {}]]], "class_name": "Activation"}, {"config": {"dilation_rate": [1, 1], "bias_initializer": {"class_name": "Zeros", "config": {}}, "kernel_size": [3, 3], "data_format": "channels_first", "bias_constraint": null, "strides": [1, 1], "bias_regularizer": null, "name": "conv2d_5", "trainable": true, "use_bias": true, "kernel_constraint": null, "activity_regularizer": null, "filters": 64, "padding": "same", "kernel_initializer": {"class_name": "VarianceScaling", "config": {"distribution": "uniform", "mode": "fan_avg", "seed": null, "scale": 1.0}}, "kernel_regularizer": null, "activation": "linear"}, "name": "conv2d_5", "inbound_nodes": [[["activation_4", 0, 0, {}]]], "class_name": "Conv2D"}, {"config": {"name": "merge_2", "mode": "sum", "arguments": {}, "dot_axes": -1, "output_mask_type": "raw", "mode_type": "raw", "output_shape_type": "raw", "output_shape": null, "concat_axis": -1, "output_mask": null}, "name": "merge_2", "inbound_nodes": [[["merge_1", 0, 0, {"mask": [null, null]}], ["conv2d_5", 0, 0, {"mask": [null, null]}]]], "class_name": "Merge"}, {"config": {"name": "activation_5", "trainable": true, "activation": "relu"}, "name": "activation_5", "inbound_nodes": [[["merge_2", 0, 0, {}]]], "class_name": "Activation"}, {"config": {"dilation_rate": [1, 1], "bias_initializer": {"class_name": "Zeros", "config": {}}, "kernel_size": [3, 3], "data_format": "channels_first", "bias_constraint": null, "strides": [1, 1], "bias_regularizer": null, "name": "conv2d_6", "trainable": true, "use_bias": true, "kernel_constraint": null, "activity_regularizer": null, "filters": 64, "padding": "same", "kernel_initializer": {"class_name": "VarianceScaling", "config": {"distribution": "uniform", "mode": "fan_avg", "seed": null, "scale": 1.0}}, "kernel_regularizer": null, "activation": "linear"}, "name": "conv2d_6", "inbound_nodes": [[["activation_5", 0, 0, {}]]], "class_name": "Conv2D"}, {"config": {"name": "activation_6", "trainable": true, "activation": "relu"}, "name": "activation_6", "inbound_nodes": [[["conv2d_6", 0, 0, {}]]], "class_name": "Activation"}, {"config": {"dilation_rate": [1, 1], "bias_initializer": {"class_name": "Zeros", "config": {}}, "kernel_size": [3, 3], "data_format": "channels_first", "bias_constraint": null, "strides": [1, 1], "bias_regularizer": null, "name": "conv2d_7", "trainable": true, "use_bias": true, "kernel_constraint": null, "activity_regularizer": null, "filters": 64, "padding": "same", "kernel_initializer": {"class_name": "VarianceScaling", "config": {"distribution": "uniform", "mode": "fan_avg", "seed": null, "scale": 1.0}}, "kernel_regularizer": null, "activation": "linear"}, "name": "conv2d_7", "inbound_nodes": [[["activation_6", 0, 0, {}]]], "class_name": "Conv2D"}, {"config": {"name": "merge_3", "mode": "sum", "arguments": {}, "dot_axes": -1, "output_mask_type": "raw", "mode_type": "raw", "output_shape_type": "raw", "output_shape": null, "concat_axis": -1, "output_mask": null}, "name": "merge_3", "inbound_nodes": [[["merge_2", 0, 0, {"mask": [null, null]}], ["conv2d_7", 0, 0, {"mask": [null, null]}]]], "class_name": "Merge"}, {"config": {"name": "activation_7", "trainable": true, "activation": "relu"}, "name": "activation_7", "inbound_nodes": [[["merge_3", 0, 0, {}]]], "class_name": "Activation"}, {"config": {"dilation_rate": [1, 1], "bias_initializer": {"class_name": "Zeros", "config": {}}, "kernel_size": [3, 3], "data_format": "channels_first", "bias_constraint": null, "strides": [1, 1], "bias_regularizer": null, "name": "conv2d_8", "trainable": true, "use_bias": true, "kernel_constraint": null, "activity_regularizer": null, "filters": 64, "padding": "same", "kernel_initializer": {"class_name": "VarianceScaling", "config": {"distribution": "uniform", "mode": "fan_avg", "seed": null, "scale": 1.0}}, "kernel_regularizer": null, "activation": "linear"}, "name": "conv2d_8", "inbound_nodes": [[["activation_7", 0, 0, {}]]], "class_name": "Conv2D"}, {"config": {"name": "activation_8", "trainable": true, "activation": "relu"}, "name": "activation_8", "inbound_nodes": [[["conv2d_8", 0, 0, {}]]], "class_name": "Activation"}, {"config": {"dilation_rate": [1, 1], "bias_initializer": {"class_name": "Zeros", "config": {}}, "kernel_size": [3, 3], "data_format": "channels_first", "bias_constraint": null, "strides": [1, 1], "bias_regularizer": null, "name": "conv2d_9", "trainable": true, "use_bias": true, "kernel_constraint": null, "activity_regularizer": null, "filters": 64, "padding": "same", "kernel_initializer": {"class_name": "VarianceScaling", "config": {"distribution": "uniform", "mode": "fan_avg", "seed": null, "scale": 1.0}}, "kernel_regularizer": null, "activation": "linear"}, "name": "conv2d_9", "inbound_nodes": [[["activation_8", 0, 0, {}]]], "class_name": "Conv2D"}, {"config": {"name": "merge_4", "mode": "sum", "arguments": {}, "dot_axes": -1, "output_mask_type": "raw", "mode_type": "raw", "output_shape_type": "raw", "output_shape": null, "concat_axis": -1, "output_mask": null}, "name": "merge_4", "inbound_nodes": [[["merge_3", 0, 0, {"mask": [null, null]}], ["conv2d_9", 0, 0, {"mask": [null, null]}]]], "class_name": "Merge"}, {"config": {"name": "activation_9", "trainable": true, "activation": "relu"}, "name": "activation_9", "inbound_nodes": [[["merge_4", 0, 0, {}]]], "class_name": "Activation"}, {"config": {"dilation_rate": [1, 1], "bias_initializer": {"class_name": "Zeros", "config": {}}, "kernel_size": [3, 3], "data_format": "channels_first", "bias_constraint": null, "strides": [1, 1], "bias_regularizer": null, "name": "conv2d_10", "trainable": true, "use_bias": true, "kernel_constraint": null, "activity_regularizer": null, "filters": 64, "padding": "same", "kernel_initializer": {"class_name": "VarianceScaling", "config": {"distribution": "uniform", "mode": "fan_avg", "seed": null, "scale": 1.0}}, "kernel_regularizer": null, "activation": "linear"}, "name": "conv2d_10", "inbound_nodes": [[["activation_9", 0, 0, {}]]], "class_name": "Conv2D"}, {"config": {"name": "activation_10", "trainable": true, "activation": "relu"}, "name": "activation_10", "inbound_nodes": [[["conv2d_10", 0, 0, {}]]], "class_name": "Activation"}, {"config": {"dilation_rate": [1, 1], "bias_initializer": {"class_name": "Zeros", "config": {}}, "kernel_size": [3, 3], "data_format": "channels_first", "bias_constraint": null, "strides": [1, 1], "bias_regularizer": null, "name": "conv2d_11", "trainable": true, "use_bias": true, "kernel_constraint": null, "activity_regularizer": null, "filters": 64, "padding": "same", "kernel_initializer": {"class_name": "VarianceScaling", "config": {"distribution": "uniform", "mode": "fan_avg", "seed": null, "scale": 1.0}}, "kernel_regularizer": null, "activation": "linear"}, "name": "conv2d_11", "inbound_nodes": [[["activation_10", 0, 0, {}]]], "class_name": "Conv2D"}, {"config": {"name": "merge_5", "mode": "sum", "arguments": {}, "dot_axes": -1, "output_mask_type": "raw", "mode_type": "raw", "output_shape_type": "raw", "output_shape": null, "concat_axis": -1, "output_mask": null}, "name": "merge_5", "inbound_nodes": [[["merge_4", 0, 0, {"mask": [null, null]}], ["conv2d_11", 0, 0, {"mask": [null, null]}]]], "class_name": "Merge"}, {"config": {"name": "activation_11", "trainable": true, "activation": "relu"}, "name": "activation_11", "inbound_nodes": [[["merge_5", 0, 0, {}]]], "class_name": "Activation"}, {"config": {"dilation_rate": [1, 1], "bias_initializer": {"class_name": "Zeros", "config": {}}, "kernel_size": [3, 3], "data_format": "channels_first", "bias_constraint": null, "strides": [1, 1], "bias_regularizer": null, "name": "conv2d_12", "trainable": true, "use_bias": true, "kernel_constraint": null, "activity_regularizer": null, "filters": 64, "padding": "same", "kernel_initializer": {"class_name": "VarianceScaling", "config": {"distribution": "uniform", "mode": "fan_avg", "seed": null, "scale": 1.0}}, "kernel_regularizer": null, "activation": "linear"}, "name": "conv2d_12", "inbound_nodes": [[["activation_11", 0, 0, {}]]], "class_name": "Conv2D"}, {"config": {"name": "activation_12", "trainable": true, "activation": "relu"}, "name": "activation_12", "inbound_nodes": [[["conv2d_12", 0, 0, {}]]], "class_name": "Activation"}, {"config": {"dilation_rate": [1, 1], "bias_initializer": {"class_name": "Zeros", "config": {}}, "kernel_size": [3, 3], "data_format": "channels_first", "bias_constraint": null, "strides": [1, 1], "bias_regularizer": null, "name": "conv2d_13", "trainable": true, "use_bias": true, "kernel_constraint": null, "activity_regularizer": null, "filters": 64, "padding": "same", "kernel_initializer": {"class_name": "VarianceScaling", "config": {"distribution": "uniform", "mode": "fan_avg", "seed": null, "scale": 1.0}}, "kernel_regularizer": null, "activation": "linear"}, "name": "conv2d_13", "inbound_nodes": [[["activation_12", 0, 0, {}]]], "class_name": "Conv2D"}, {"config": {"name": "merge_6", "mode": "sum", "arguments": {}, "dot_axes": -1, "output_mask_type": "raw", "mode_type": "raw", "output_shape_type": "raw", "output_shape": null, "concat_axis": -1, "output_mask": null}, "name": "merge_6", "inbound_nodes": [[["merge_5", 0, 0, {"mask": [null, null]}], ["conv2d_13", 0, 0, {"mask": [null, null]}]]], "class_name": "Merge"}, {"config": {"name": "activation_13", "trainable": true, "activation": "relu"}, "name": "activation_13", "inbound_nodes": [[["merge_6", 0, 0, {}]]], "class_name": "Activation"}, {"config": {"dilation_rate": [1, 1], "bias_initializer": {"class_name": "Zeros", "config": {}}, "kernel_size": [3, 3], "data_format": "channels_first", "bias_constraint": null, "strides": [1, 1], "bias_regularizer": null, "name": "conv2d_14", "trainable": true, "use_bias": true, "kernel_constraint": null, "activity_regularizer": null, "filters": 64, "padding": "same", "kernel_initializer": {"class_name": "VarianceScaling", "config": {"distribution": "uniform", "mode": "fan_avg", "seed": null, "scale": 1.0}}, "kernel_regularizer": null, "activation": "linear"}, "name": "conv2d_14", "inbound_nodes": [[["activation_13", 0, 0, {}]]], "class_name": "Conv2D"}, {"config": {"name": "activation_14", "trainable": true, "activation": "relu"}, "name": "activation_14", "inbound_nodes": [[["conv2d_14", 0, 0, {}]]], "class_name": "Activation"}, {"config": {"dilation_rate": [1, 1], "bias_initializer": {"class_name": "Zeros", "config": {}}, "kernel_size": [3, 3], "data_format": "channels_first", "bias_constraint": null, "strides": [1, 1], "bias_regularizer": null, "name": "conv2d_15", "trainable": true, "use_bias": true, "kernel_constraint": null, "activity_regularizer": null, "filters": 64, "padding": "same", "kernel_initializer": {"class_name": "VarianceScaling", "config": {"distribution": "uniform", "mode": "fan_avg", "seed": null, "scale": 1.0}}, "kernel_regularizer": null, "activation": "linear"}, "name": "conv2d_15", "inbound_nodes": [[["activation_14", 0, 0, {}]]], "class_name": "Conv2D"}, {"config": {"name": "merge_7", "mode": "sum", "arguments": {}, "dot_axes": -1, "output_mask_type": "raw", "mode_type": "raw", "output_shape_type": "raw", "output_shape": null, "concat_axis": -1, "output_mask": null}, "name": "merge_7", "inbound_nodes": [[["merge_6", 0, 0, {"mask": [null, null]}], ["conv2d_15", 0, 0, {"mask": [null, null]}]]], "class_name": "Merge"}, {"config": {"name": "activation_15", "trainable": true, "activation": "relu"}, "name": "activation_15", "inbound_nodes": [[["merge_7", 0, 0, {}]]], "class_name": "Activation"}, {"config": {"dilation_rate": [1, 1], "bias_initializer": {"class_name": "Zeros", "config": {}}, "kernel_size": [3, 3], "data_format": "channels_first", "bias_constraint": null, "strides": [1, 1], "bias_regularizer": null, "name": "conv2d_16", "trainable": true, "use_bias": true, "kernel_constraint": null, "activity_regularizer": null, "filters": 64, "padding": "same", "kernel_initializer": {"class_name": "VarianceScaling", "config": {"distribution": "uniform", "mode": "fan_avg", "seed": null, "scale": 1.0}}, "kernel_regularizer": null, "activation": "linear"}, "name": "conv2d_16", "inbound_nodes": [[["activation_15", 0, 0, {}]]], "class_name": "Conv2D"}, {"config": {"name": "activation_16", "trainable": true, "activation": "relu"}, "name": "activation_16", "inbound_nodes": [[["conv2d_16", 0, 0, {}]]], "class_name": "Activation"}, {"config": {"dilation_rate": [1, 1], "bias_initializer": {"class_name": "Zeros", "config": {}}, "kernel_size": [3, 3], "data_format": "channels_first", "bias_constraint": null, "strides": [1, 1], "bias_regularizer": null, "name": "conv2d_17", "trainable": true, "use_bias": true, "kernel_constraint": null, "activity_regularizer": null, "filters": 64, "padding": "same", "kernel_initializer": {"class_name": "VarianceScaling", "config": {"distribution": "uniform", "mode": "fan_avg", "seed": null, "scale": 1.0}}, "kernel_regularizer": null, "activation": "linear"}, "name": "conv2d_17", "inbound_nodes": [[["activation_16", 0, 0, {}]]], "class_name": "Conv2D"}, {"config": {"name": "merge_8", "mode": "sum", "arguments": {}, "dot_axes": -1, "output_mask_type": "raw", "mode_type": "raw", "output_shape_type": "raw", "output_shape": null, "concat_axis": -1, "output_mask": null}, "name": "merge_8", "inbound_nodes": [[["merge_7", 0, 0, {"mask": [null, null]}], ["conv2d_17", 0, 0, {"mask": [null, null]}]]], "class_name": "Merge"}, {"config": {"name": "activation_17", "trainable": true, "activation": "relu"}, "name": "activation_17", "inbound_nodes": [[["merge_8", 0, 0, {}]]], "class_name": "Activation"}, {"config": {"dilation_rate": [1, 1], "bias_initializer": {"class_name": "Zeros", "config": {}}, "kernel_size": [3, 3], "data_format": "channels_first", "bias_constraint": null, "strides": [1, 1], "bias_regularizer": null, "name": "conv2d_18", "trainable": true, "use_bias": true, "kernel_constraint": null, "activity_regularizer": null, "filters": 64, "padding": "same", "kernel_initializer": {"class_name": "VarianceScaling", "config": {"distribution": "uniform", "mode": "fan_avg", "seed": null, "scale": 1.0}}, "kernel_regularizer": null, "activation": "linear"}, "name": "conv2d_18", "inbound_nodes": [[["activation_17", 0, 0, {}]]], "class_name": "Conv2D"}, {"config": {"name": "activation_18", "trainable": true, "activation": "relu"}, "name": "activation_18", "inbound_nodes": [[["conv2d_18", 0, 0, {}]]], "class_name": "Activation"}, {"config": {"dilation_rate": [1, 1], "bias_initializer": {"class_name": "Zeros", "config": {}}, "kernel_size": [3, 3], "data_format": "channels_first", "bias_constraint": null, "strides": [1, 1], "bias_regularizer": null, "name": "conv2d_19", "trainable": true, "use_bias": true, "kernel_constraint": null, "activity_regularizer": null, "filters": 64, "padding": "same", "kernel_initializer": {"class_name": "VarianceScaling", "config": {"distribution": "uniform", "mode": "fan_avg", "seed": null, "scale": 1.0}}, "kernel_regularizer": null, "activation": "linear"}, "name": "conv2d_19", "inbound_nodes": [[["activation_18", 0, 0, {}]]], "class_name": "Conv2D"}, {"config": {"name": "merge_9", "mode": "sum", "arguments": {}, "dot_axes": -1, "output_mask_type": "raw", "mode_type": "raw", "output_shape_type": "raw", "output_shape": null, "concat_axis": -1, "output_mask": null}, "name": "merge_9", "inbound_nodes": [[["merge_8", 0, 0, {"mask": [null, null]}], ["conv2d_19", 0, 0, {"mask": [null, null]}]]], "class_name": "Merge"}, {"config": {"name": "activation_19", "trainable": true, "activation": "relu"}, "name": "activation_19", "inbound_nodes": [[["merge_9", 0, 0, {}]]], "class_name": "Activation"}, {"config": {"dilation_rate": [1, 1], "bias_initializer": {"class_name": "Zeros", "config": {}}, "kernel_size": [3, 3], "data_format": "channels_first", "bias_constraint": null, "strides": [1, 1], "bias_regularizer": null, "name": "conv2d_20", "trainable": true, "use_bias": true, "kernel_constraint": null, "activity_regularizer": null, "filters": 64, "padding": "same", "kernel_initializer": {"class_name": "VarianceScaling", "config": {"distribution": "uniform", "mode": "fan_avg", "seed": null, "scale": 1.0}}, "kernel_regularizer": null, "activation": "linear"}, "name": "conv2d_20", "inbound_nodes": [[["activation_19", 0, 0, {}]]], "class_name": "Conv2D"}, {"config": {"name": "activation_20", "trainable": true, "activation": "relu"}, "name": "activation_20", "inbound_nodes": [[["conv2d_20", 0, 0, {}]]], "class_name": "Activation"}, {"config": {"dilation_rate": [1, 1], "bias_initializer": {"class_name": "Zeros", "config": {}}, "kernel_size": [3, 3], "data_format": "channels_first", "bias_constraint": null, "strides": [1, 1], "bias_regularizer": null, "name": "conv2d_21", "trainable": true, "use_bias": true, "kernel_constraint": null, "activity_regularizer": null, "filters": 64, "padding": "same", "kernel_initializer": {"class_name": "VarianceScaling", "config": {"distribution": "uniform", "mode": "fan_avg", "seed": null, "scale": 1.0}}, "kernel_regularizer": null, "activation": "linear"}, "name": "conv2d_21", "inbound_nodes": [[["activation_20", 0, 0, {}]]], "class_name": "Conv2D"}, {"config": {"name": "merge_10", "mode": "sum", "arguments": {}, "dot_axes": -1, "output_mask_type": "raw", "mode_type": "raw", "output_shape_type": "raw", "output_shape": null, "concat_axis": -1, "output_mask": null}, "name": "merge_10", "inbound_nodes": [[["merge_9", 0, 0, {"mask": [null, null]}], ["conv2d_21", 0, 0, {"mask": [null, null]}]]], "class_name": "Merge"}, {"config": {"name": "activation_21", "trainable": true, "activation": "relu"}, "name": "activation_21", "inbound_nodes": [[["merge_10", 0, 0, {}]]], "class_name": "Activation"}, {"config": {"dilation_rate": [1, 1], "bias_initializer": {"class_name": "Zeros", "config": {}}, "kernel_size": [3, 3], "data_format": "channels_first", "bias_constraint": null, "strides": [1, 1], "bias_regularizer": null, "name": "conv2d_22", "trainable": true, "use_bias": true, "kernel_constraint": null, "activity_regularizer": null, "filters": 64, "padding": "same", "kernel_initializer": {"class_name": "VarianceScaling", "config": {"distribution": "uniform", "mode": "fan_avg", "seed": null, "scale": 1.0}}, "kernel_regularizer": null, "activation": "linear"}, "name": "conv2d_22", "inbound_nodes": [[["activation_21", 0, 0, {}]]], "class_name": "Conv2D"}, {"config": {"name": "activation_22", "trainable": true, "activation": "relu"}, "name": "activation_22", "inbound_nodes": [[["conv2d_22", 0, 0, {}]]], "class_name": "Activation"}, {"config": {"dilation_rate": [1, 1], "bias_initializer": {"class_name": "Zeros", "config": {}}, "kernel_size": [3, 3], "data_format": "channels_first", "bias_constraint": null, "strides": [1, 1], "bias_regularizer": null, "name": "conv2d_23", "trainable": true, "use_bias": true, "kernel_constraint": null, "activity_regularizer": null, "filters": 64, "padding": "same", "kernel_initializer": {"class_name": "VarianceScaling", "config": {"distribution": "uniform", "mode": "fan_avg", "seed": null, "scale": 1.0}}, "kernel_regularizer": null, "activation": "linear"}, "name": "conv2d_23", "inbound_nodes": [[["activation_22", 0, 0, {}]]], "class_name": "Conv2D"}, {"config": {"name": "merge_11", "mode": "sum", "arguments": {}, "dot_axes": -1, "output_mask_type": "raw", "mode_type": "raw", "output_shape_type": "raw", "output_shape": null, "concat_axis": -1, "output_mask": null}, "name": "merge_11", "inbound_nodes": [[["merge_10", 0, 0, {"mask": [null, null]}], ["conv2d_23", 0, 0, {"mask": [null, null]}]]], "class_name": "Merge"}, {"config": {"name": "activation_23", "trainable": true, "activation": "relu"}, "name": "activation_23", "inbound_nodes": [[["merge_11", 0, 0, {}]]], "class_name": "Activation"}, {"config": {"dilation_rate": [1, 1], "bias_initializer": {"class_name": "Zeros", "config": {}}, "kernel_size": [3, 3], "data_format": "channels_first", "bias_constraint": null, "strides": [1, 1], "bias_regularizer": null, "name": "conv2d_24", "trainable": true, "use_bias": true, "kernel_constraint": null, "activity_regularizer": null, "filters": 64, "padding": "same", "kernel_initializer": {"class_name": "VarianceScaling", "config": {"distribution": "uniform", "mode": "fan_avg", "seed": null, "scale": 1.0}}, "kernel_regularizer": null, "activation": "linear"}, "name": "conv2d_24", "inbound_nodes": [[["activation_23", 0, 0, {}]]], "class_name": "Conv2D"}, {"config": {"name": "activation_24", "trainable": true, "activation": "relu"}, "name": "activation_24", "inbound_nodes": [[["conv2d_24", 0, 0, {}]]], "class_name": "Activation"}, {"config": {"dilation_rate": [1, 1], "bias_initializer": {"class_name": "Zeros", "config": {}}, "kernel_size": [3, 3], "data_format": "channels_first", "bias_constraint": null, "strides": [1, 1], "bias_regularizer": null, "name": "conv2d_25", "trainable": true, "use_bias": true, "kernel_constraint": null, "activity_regularizer": null, "filters": 64, "padding": "same", "kernel_initializer": {"class_name": "VarianceScaling", "config": {"distribution": "uniform", "mode": "fan_avg", "seed": null, "scale": 1.0}}, "kernel_regularizer": null, "activation": "linear"}, "name": "conv2d_25", "inbound_nodes": [[["activation_24", 0, 0, {}]]], "class_name": "Conv2D"}, {"config": {"name": "merge_12", "mode": "sum", "arguments": {}, "dot_axes": -1, "output_mask_type": "raw", "mode_type": "raw", "output_shape_type": "raw", "output_shape": null, "concat_axis": -1, "output_mask": null}, "name": "merge_12", "inbound_nodes": [[["merge_11", 0, 0, {"mask": [null, null]}], ["conv2d_25", 0, 0, {"mask": [null, null]}]]], "class_name": "Merge"}, {"config": {"name": "activation_25", "trainable": true, "activation": "relu"}, "name": "activation_25", "inbound_nodes": [[["merge_12", 0, 0, {}]]], "class_name": "Activation"}, {"config": {"dilation_rate": [1, 1], "bias_initializer": {"class_name": "Zeros", "config": {}}, "kernel_size": [3, 3], "data_format": "channels_first", "bias_constraint": null, "strides": [1, 1], "bias_regularizer": null, "name": "conv2d_26", "trainable": true, "use_bias": true, "kernel_constraint": null, "activity_regularizer": null, "filters": 1, "padding": "same", "kernel_initializer": {"class_name": "VarianceScaling", "config": {"distribution": "uniform", "mode": "fan_avg", "seed": null, "scale": 1.0}}, "kernel_regularizer": null, "activation": "linear"}, "name": "conv2d_26", "inbound_nodes": [[["activation_25", 0, 0, {}]]], "class_name": "Conv2D"}, {"config": {"name": "activation_26", "trainable": true, "activation": "tanh"}, "name": "activation_26", "inbound_nodes": [[["conv2d_26", 0, 0, {}]]], "class_name": "Activation"}], "name": "model_1", "input_layers": [["input_1", 0, 0]]}}