{"class_name": "Model", "backend": "tensorflow", "keras_version": "2.0.4", "config": {"input_layers": [["input_1", 0, 0]], "name": "model_1", "output_layers": [["activation_4", 0, 0]], "layers": [{"class_name": "InputLayer", "name": "input_1", "inbound_nodes": [], "config": {"dtype": "float32", "batch_input_shape": [null, 3, 52, 52], "name": "input_1", "sparse": false}}, {"class_name": "Conv2D", "name": "conv2d_1", "inbound_nodes": [[["input_1", 0, 0, {}]]], "config": {"dilation_rate": [1, 1], "trainable": true, "strides": [1, 1], "bias_regularizer": null, "kernel_constraint": null, "filters": 64, "activation": "linear", "activity_regularizer": null, "kernel_size": [3, 3], "bias_initializer": {"class_name": "Zeros", "config": {}}, "bias_constraint": null, "padding": "same", "kernel_initializer": {"class_name": "VarianceScaling", "config": {"scale": 1.0, "distribution": "uniform", "seed": null, "mode": "fan_avg"}}, "name": "conv2d_1", "kernel_regularizer": null, "use_bias": true, "data_format": "channels_first"}}, {"class_name": "Activation", "name": "activation_1", "inbound_nodes": [[["conv2d_1", 0, 0, {}]]], "config": {"activation": "relu", "trainable": true, "name": "activation_1"}}, {"class_name": "Conv2D", "name": "conv2d_2", "inbound_nodes": [[["activation_1", 0, 0, {}]]], "config": {"dilation_rate": [1, 1], "trainable": true, "strides": [1, 1], "bias_regularizer": null, "kernel_constraint": null, "filters": 64, "activation": "linear", "activity_regularizer": null, "kernel_size": [3, 3], "bias_initializer": {"class_name": "Zeros", "config": {}}, "bias_constraint": null, "padding": "same", "kernel_initializer": {"class_name": "VarianceScaling", "config": {"scale": 1.0, "distribution": "uniform", "seed": null, "mode": "fan_avg"}}, "name": "conv2d_2", "kernel_regularizer": null, "use_bias": true, "data_format": "channels_first"}}, {"class_name": "Activation", "name": "activation_2", "inbound_nodes": [[["conv2d_2", 0, 0, {}]]], "config": {"activation": "relu", "trainable": true, "name": "activation_2"}}, {"class_name": "Conv2D", "name": "conv2d_3", "inbound_nodes": [[["activation_2", 0, 0, {}]]], "config": {"dilation_rate": [1, 1], "trainable": true, "strides": [1, 1], "bias_regularizer": null, "kernel_constraint": null, "filters": 64, "activation": "linear", "activity_regularizer": null, "kernel_size": [3, 3], "bias_initializer": {"class_name": "Zeros", "config": {}}, "bias_constraint": null, "padding": "same", "kernel_initializer": {"class_name": "VarianceScaling", "config": {"scale": 1.0, "distribution": "uniform", "seed": null, "mode": "fan_avg"}}, "name": "conv2d_3", "kernel_regularizer": null, "use_bias": true, "data_format": "channels_first"}}, {"class_name": "Merge", "name": "merge_1", "inbound_nodes": [[["conv2d_1", 0, 0, {"mask": [null, null]}], ["conv2d_3", 0, 0, {"mask": [null, null]}]]], "config": {"concat_axis": -1, "dot_axes": -1, "arguments": {}, "name": "merge_1", "output_shape_type": "raw", "output_shape": null, "output_mask_type": "raw", "output_mask": null, "mode_type": "raw", "mode": "sum"}}, {"class_name": "Activation", "name": "activation_3", "inbound_nodes": [[["merge_1", 0, 0, {}]]], "config": {"activation": "relu", "trainable": true, "name": "activation_3"}}, {"class_name": "Conv2D", "name": "conv2d_4", "inbound_nodes": [[["activation_3", 0, 0, {}]]], "config": {"dilation_rate": [1, 1], "trainable": true, "strides": [1, 1], "bias_regularizer": null, "kernel_constraint": null, "filters": 1, "activation": "linear", "activity_regularizer": null, "kernel_size": [3, 3], "bias_initializer": {"class_name": "Zeros", "config": {}}, "bias_constraint": null, "padding": "same", "kernel_initializer": {"class_name": "VarianceScaling", "config": {"scale": 1.0, "distribution": "uniform", "seed": null, "mode": "fan_avg"}}, "name": "conv2d_4", "kernel_regularizer": null, "use_bias": true, "data_format": "channels_first"}}, {"class_name": "Activation", "name": "activation_4", "inbound_nodes": [[["conv2d_4", 0, 0, {}]]], "config": {"activation": "tanh", "trainable": true, "name": "activation_4"}}]}}