{"backend": "theano", "config": {"input_layers": [["input_2", 0, 0]], "name": "model_2", "output_layers": [["activation_52", 0, 0]], "layers": [{"inbound_nodes": [], "config": {"batch_input_shape": [null, 30, 52, 52], "dtype": "float32", "name": "input_2", "sparse": false}, "name": "input_2", "class_name": "InputLayer"}, {"inbound_nodes": [[["input_2", 0, 0, {}]]], "config": {"kernel_regularizer": null, "trainable": true, "strides": [1, 1], "kernel_constraint": null, "dilation_rate": [1, 1], "name": "conv2d_27", "use_bias": true, "activity_regularizer": null, "data_format": "channels_first", "activation": "linear", "kernel_size": [3, 3], "filters": 64, "bias_constraint": null, "padding": "same", "kernel_initializer": {"config": {"seed": null, "distribution": "uniform", "scale": 1.0, "mode": "fan_avg"}, "class_name": "VarianceScaling"}, "bias_regularizer": null, "bias_initializer": {"config": {}, "class_name": "Zeros"}}, "name": "conv2d_27", "class_name": "Conv2D"}, {"inbound_nodes": [[["conv2d_27", 0, 0, {}]]], "config": {"trainable": true, "name": "activation_27", "activation": "relu"}, "name": "activation_27", "class_name": "Activation"}, {"inbound_nodes": [[["activation_27", 0, 0, {}]]], "config": {"kernel_regularizer": null, "trainable": true, "strides": [1, 1], "kernel_constraint": null, "dilation_rate": [1, 1], "name": "conv2d_28", "use_bias": true, "activity_regularizer": null, "data_format": "channels_first", "activation": "linear", "kernel_size": [3, 3], "filters": 64, "bias_constraint": null, "padding": "same", "kernel_initializer": {"config": {"seed": null, "distribution": "uniform", "scale": 1.0, "mode": "fan_avg"}, "class_name": "VarianceScaling"}, "bias_regularizer": null, "bias_initializer": {"config": {}, "class_name": "Zeros"}}, "name": "conv2d_28", "class_name": "Conv2D"}, {"inbound_nodes": [[["conv2d_28", 0, 0, {}]]], "config": {"trainable": true, "name": "activation_28", "activation": "relu"}, "name": "activation_28", "class_name": "Activation"}, {"inbound_nodes": [[["activation_28", 0, 0, {}]]], "config": {"kernel_regularizer": null, "trainable": true, "strides": [1, 1], "kernel_constraint": null, "dilation_rate": [1, 1], "name": "conv2d_29", "use_bias": true, "activity_regularizer": null, "data_format": "channels_first", "activation": "linear", "kernel_size": [3, 3], "filters": 64, "bias_constraint": null, "padding": "same", "kernel_initializer": {"config": {"seed": null, "distribution": "uniform", "scale": 1.0, "mode": "fan_avg"}, "class_name": "VarianceScaling"}, "bias_regularizer": null, "bias_initializer": {"config": {}, "class_name": "Zeros"}}, "name": "conv2d_29", "class_name": "Conv2D"}, {"inbound_nodes": [[["conv2d_27", 0, 0, {"mask": [null, null]}], ["conv2d_29", 0, 0, {"mask": [null, null]}]]], "config": {"dot_axes": -1, "name": "merge_13", "mode": "sum", "output_shape_type": "raw", "concat_axis": -1, "output_shape": null, "mode_type": "raw", "arguments": {}, "output_mask_type": "raw", "output_mask": null}, "name": "merge_13", "class_name": "Merge"}, {"inbound_nodes": [[["merge_13", 0, 0, {}]]], "config": {"trainable": true, "name": "activation_29", "activation": "relu"}, "name": "activation_29", "class_name": "Activation"}, {"inbound_nodes": [[["activation_29", 0, 0, {}]]], "config": {"kernel_regularizer": null, "trainable": true, "strides": [1, 1], "kernel_constraint": null, "dilation_rate": [1, 1], "name": "conv2d_30", "use_bias": true, "activity_regularizer": null, "data_format": "channels_first", "activation": "linear", "kernel_size": [3, 3], "filters": 64, "bias_constraint": null, "padding": "same", "kernel_initializer": {"config": {"seed": null, "distribution": "uniform", "scale": 1.0, "mode": "fan_avg"}, "class_name": "VarianceScaling"}, "bias_regularizer": null, "bias_initializer": {"config": {}, "class_name": "Zeros"}}, "name": "conv2d_30", "class_name": "Conv2D"}, {"inbound_nodes": [[["conv2d_30", 0, 0, {}]]], "config": {"trainable": true, "name": "activation_30", "activation": "relu"}, "name": "activation_30", "class_name": "Activation"}, {"inbound_nodes": [[["activation_30", 0, 0, {}]]], "config": {"kernel_regularizer": null, "trainable": true, "strides": [1, 1], "kernel_constraint": null, "dilation_rate": [1, 1], "name": "conv2d_31", "use_bias": true, "activity_regularizer": null, "data_format": "channels_first", "activation": "linear", "kernel_size": [3, 3], "filters": 64, "bias_constraint": null, "padding": "same", "kernel_initializer": {"config": {"seed": null, "distribution": "uniform", "scale": 1.0, "mode": "fan_avg"}, "class_name": "VarianceScaling"}, "bias_regularizer": null, "bias_initializer": {"config": {}, "class_name": "Zeros"}}, "name": "conv2d_31", "class_name": "Conv2D"}, {"inbound_nodes": [[["merge_13", 0, 0, {"mask": [null, null]}], ["conv2d_31", 0, 0, {"mask": [null, null]}]]], "config": {"dot_axes": -1, "name": "merge_14", "mode": "sum", "output_shape_type": "raw", "concat_axis": -1, "output_shape": null, "mode_type": "raw", "arguments": {}, "output_mask_type": "raw", "output_mask": null}, "name": "merge_14", "class_name": "Merge"}, {"inbound_nodes": [[["merge_14", 0, 0, {}]]], "config": {"trainable": true, "name": "activation_31", "activation": "relu"}, "name": "activation_31", "class_name": "Activation"}, {"inbound_nodes": [[["activation_31", 0, 0, {}]]], "config": {"kernel_regularizer": null, "trainable": true, "strides": [1, 1], "kernel_constraint": null, "dilation_rate": [1, 1], "name": "conv2d_32", "use_bias": true, "activity_regularizer": null, "data_format": "channels_first", "activation": "linear", "kernel_size": [3, 3], "filters": 64, "bias_constraint": null, "padding": "same", "kernel_initializer": {"config": {"seed": null, "distribution": "uniform", "scale": 1.0, "mode": "fan_avg"}, "class_name": "VarianceScaling"}, "bias_regularizer": null, "bias_initializer": {"config": {}, "class_name": "Zeros"}}, "name": "conv2d_32", "class_name": "Conv2D"}, {"inbound_nodes": [[["conv2d_32", 0, 0, {}]]], "config": {"trainable": true, "name": "activation_32", "activation": "relu"}, "name": "activation_32", "class_name": "Activation"}, {"inbound_nodes": [[["activation_32", 0, 0, {}]]], "config": {"kernel_regularizer": null, "trainable": true, "strides": [1, 1], "kernel_constraint": null, "dilation_rate": [1, 1], "name": "conv2d_33", "use_bias": true, "activity_regularizer": null, "data_format": "channels_first", "activation": "linear", "kernel_size": [3, 3], "filters": 64, "bias_constraint": null, "padding": "same", "kernel_initializer": {"config": {"seed": null, "distribution": "uniform", "scale": 1.0, "mode": "fan_avg"}, "class_name": "VarianceScaling"}, "bias_regularizer": null, "bias_initializer": {"config": {}, "class_name": "Zeros"}}, "name": "conv2d_33", "class_name": "Conv2D"}, {"inbound_nodes": [[["merge_14", 0, 0, {"mask": [null, null]}], ["conv2d_33", 0, 0, {"mask": [null, null]}]]], "config": {"dot_axes": -1, "name": "merge_15", "mode": "sum", "output_shape_type": "raw", "concat_axis": -1, "output_shape": null, "mode_type": "raw", "arguments": {}, "output_mask_type": "raw", "output_mask": null}, "name": "merge_15", "class_name": "Merge"}, {"inbound_nodes": [[["merge_15", 0, 0, {}]]], "config": {"trainable": true, "name": "activation_33", "activation": "relu"}, "name": "activation_33", "class_name": "Activation"}, {"inbound_nodes": [[["activation_33", 0, 0, {}]]], "config": {"kernel_regularizer": null, "trainable": true, "strides": [1, 1], "kernel_constraint": null, "dilation_rate": [1, 1], "name": "conv2d_34", "use_bias": true, "activity_regularizer": null, "data_format": "channels_first", "activation": "linear", "kernel_size": [3, 3], "filters": 64, "bias_constraint": null, "padding": "same", "kernel_initializer": {"config": {"seed": null, "distribution": "uniform", "scale": 1.0, "mode": "fan_avg"}, "class_name": "VarianceScaling"}, "bias_regularizer": null, "bias_initializer": {"config": {}, "class_name": "Zeros"}}, "name": "conv2d_34", "class_name": "Conv2D"}, {"inbound_nodes": [[["conv2d_34", 0, 0, {}]]], "config": {"trainable": true, "name": "activation_34", "activation": "relu"}, "name": "activation_34", "class_name": "Activation"}, {"inbound_nodes": [[["activation_34", 0, 0, {}]]], "config": {"kernel_regularizer": null, "trainable": true, "strides": [1, 1], "kernel_constraint": null, "dilation_rate": [1, 1], "name": "conv2d_35", "use_bias": true, "activity_regularizer": null, "data_format": "channels_first", "activation": "linear", "kernel_size": [3, 3], "filters": 64, "bias_constraint": null, "padding": "same", "kernel_initializer": {"config": {"seed": null, "distribution": "uniform", "scale": 1.0, "mode": "fan_avg"}, "class_name": "VarianceScaling"}, "bias_regularizer": null, "bias_initializer": {"config": {}, "class_name": "Zeros"}}, "name": "conv2d_35", "class_name": "Conv2D"}, {"inbound_nodes": [[["merge_15", 0, 0, {"mask": [null, null]}], ["conv2d_35", 0, 0, {"mask": [null, null]}]]], "config": {"dot_axes": -1, "name": "merge_16", "mode": "sum", "output_shape_type": "raw", "concat_axis": -1, "output_shape": null, "mode_type": "raw", "arguments": {}, "output_mask_type": "raw", "output_mask": null}, "name": "merge_16", "class_name": "Merge"}, {"inbound_nodes": [[["merge_16", 0, 0, {}]]], "config": {"trainable": true, "name": "activation_35", "activation": "relu"}, "name": "activation_35", "class_name": "Activation"}, {"inbound_nodes": [[["activation_35", 0, 0, {}]]], "config": {"kernel_regularizer": null, "trainable": true, "strides": [1, 1], "kernel_constraint": null, "dilation_rate": [1, 1], "name": "conv2d_36", "use_bias": true, "activity_regularizer": null, "data_format": "channels_first", "activation": "linear", "kernel_size": [3, 3], "filters": 64, "bias_constraint": null, "padding": "same", "kernel_initializer": {"config": {"seed": null, "distribution": "uniform", "scale": 1.0, "mode": "fan_avg"}, "class_name": "VarianceScaling"}, "bias_regularizer": null, "bias_initializer": {"config": {}, "class_name": "Zeros"}}, "name": "conv2d_36", "class_name": "Conv2D"}, {"inbound_nodes": [[["conv2d_36", 0, 0, {}]]], "config": {"trainable": true, "name": "activation_36", "activation": "relu"}, "name": "activation_36", "class_name": "Activation"}, {"inbound_nodes": [[["activation_36", 0, 0, {}]]], "config": {"kernel_regularizer": null, "trainable": true, "strides": [1, 1], "kernel_constraint": null, "dilation_rate": [1, 1], "name": "conv2d_37", "use_bias": true, "activity_regularizer": null, "data_format": "channels_first", "activation": "linear", "kernel_size": [3, 3], "filters": 64, "bias_constraint": null, "padding": "same", "kernel_initializer": {"config": {"seed": null, "distribution": "uniform", "scale": 1.0, "mode": "fan_avg"}, "class_name": "VarianceScaling"}, "bias_regularizer": null, "bias_initializer": {"config": {}, "class_name": "Zeros"}}, "name": "conv2d_37", "class_name": "Conv2D"}, {"inbound_nodes": [[["merge_16", 0, 0, {"mask": [null, null]}], ["conv2d_37", 0, 0, {"mask": [null, null]}]]], "config": {"dot_axes": -1, "name": "merge_17", "mode": "sum", "output_shape_type": "raw", "concat_axis": -1, "output_shape": null, "mode_type": "raw", "arguments": {}, "output_mask_type": "raw", "output_mask": null}, "name": "merge_17", "class_name": "Merge"}, {"inbound_nodes": [[["merge_17", 0, 0, {}]]], "config": {"trainable": true, "name": "activation_37", "activation": "relu"}, "name": "activation_37", "class_name": "Activation"}, {"inbound_nodes": [[["activation_37", 0, 0, {}]]], "config": {"kernel_regularizer": null, "trainable": true, "strides": [1, 1], "kernel_constraint": null, "dilation_rate": [1, 1], "name": "conv2d_38", "use_bias": true, "activity_regularizer": null, "data_format": "channels_first", "activation": "linear", "kernel_size": [3, 3], "filters": 64, "bias_constraint": null, "padding": "same", "kernel_initializer": {"config": {"seed": null, "distribution": "uniform", "scale": 1.0, "mode": "fan_avg"}, "class_name": "VarianceScaling"}, "bias_regularizer": null, "bias_initializer": {"config": {}, "class_name": "Zeros"}}, "name": "conv2d_38", "class_name": "Conv2D"}, {"inbound_nodes": [[["conv2d_38", 0, 0, {}]]], "config": {"trainable": true, "name": "activation_38", "activation": "relu"}, "name": "activation_38", "class_name": "Activation"}, {"inbound_nodes": [[["activation_38", 0, 0, {}]]], "config": {"kernel_regularizer": null, "trainable": true, "strides": [1, 1], "kernel_constraint": null, "dilation_rate": [1, 1], "name": "conv2d_39", "use_bias": true, "activity_regularizer": null, "data_format": "channels_first", "activation": "linear", "kernel_size": [3, 3], "filters": 64, "bias_constraint": null, "padding": "same", "kernel_initializer": {"config": {"seed": null, "distribution": "uniform", "scale": 1.0, "mode": "fan_avg"}, "class_name": "VarianceScaling"}, "bias_regularizer": null, "bias_initializer": {"config": {}, "class_name": "Zeros"}}, "name": "conv2d_39", "class_name": "Conv2D"}, {"inbound_nodes": [[["merge_17", 0, 0, {"mask": [null, null]}], ["conv2d_39", 0, 0, {"mask": [null, null]}]]], "config": {"dot_axes": -1, "name": "merge_18", "mode": "sum", "output_shape_type": "raw", "concat_axis": -1, "output_shape": null, "mode_type": "raw", "arguments": {}, "output_mask_type": "raw", "output_mask": null}, "name": "merge_18", "class_name": "Merge"}, {"inbound_nodes": [[["merge_18", 0, 0, {}]]], "config": {"trainable": true, "name": "activation_39", "activation": "relu"}, "name": "activation_39", "class_name": "Activation"}, {"inbound_nodes": [[["activation_39", 0, 0, {}]]], "config": {"kernel_regularizer": null, "trainable": true, "strides": [1, 1], "kernel_constraint": null, "dilation_rate": [1, 1], "name": "conv2d_40", "use_bias": true, "activity_regularizer": null, "data_format": "channels_first", "activation": "linear", "kernel_size": [3, 3], "filters": 64, "bias_constraint": null, "padding": "same", "kernel_initializer": {"config": {"seed": null, "distribution": "uniform", "scale": 1.0, "mode": "fan_avg"}, "class_name": "VarianceScaling"}, "bias_regularizer": null, "bias_initializer": {"config": {}, "class_name": "Zeros"}}, "name": "conv2d_40", "class_name": "Conv2D"}, {"inbound_nodes": [[["conv2d_40", 0, 0, {}]]], "config": {"trainable": true, "name": "activation_40", "activation": "relu"}, "name": "activation_40", "class_name": "Activation"}, {"inbound_nodes": [[["activation_40", 0, 0, {}]]], "config": {"kernel_regularizer": null, "trainable": true, "strides": [1, 1], "kernel_constraint": null, "dilation_rate": [1, 1], "name": "conv2d_41", "use_bias": true, "activity_regularizer": null, "data_format": "channels_first", "activation": "linear", "kernel_size": [3, 3], "filters": 64, "bias_constraint": null, "padding": "same", "kernel_initializer": {"config": {"seed": null, "distribution": "uniform", "scale": 1.0, "mode": "fan_avg"}, "class_name": "VarianceScaling"}, "bias_regularizer": null, "bias_initializer": {"config": {}, "class_name": "Zeros"}}, "name": "conv2d_41", "class_name": "Conv2D"}, {"inbound_nodes": [[["merge_18", 0, 0, {"mask": [null, null]}], ["conv2d_41", 0, 0, {"mask": [null, null]}]]], "config": {"dot_axes": -1, "name": "merge_19", "mode": "sum", "output_shape_type": "raw", "concat_axis": -1, "output_shape": null, "mode_type": "raw", "arguments": {}, "output_mask_type": "raw", "output_mask": null}, "name": "merge_19", "class_name": "Merge"}, {"inbound_nodes": [[["merge_19", 0, 0, {}]]], "config": {"trainable": true, "name": "activation_41", "activation": "relu"}, "name": "activation_41", "class_name": "Activation"}, {"inbound_nodes": [[["activation_41", 0, 0, {}]]], "config": {"kernel_regularizer": null, "trainable": true, "strides": [1, 1], "kernel_constraint": null, "dilation_rate": [1, 1], "name": "conv2d_42", "use_bias": true, "activity_regularizer": null, "data_format": "channels_first", "activation": "linear", "kernel_size": [3, 3], "filters": 64, "bias_constraint": null, "padding": "same", "kernel_initializer": {"config": {"seed": null, "distribution": "uniform", "scale": 1.0, "mode": "fan_avg"}, "class_name": "VarianceScaling"}, "bias_regularizer": null, "bias_initializer": {"config": {}, "class_name": "Zeros"}}, "name": "conv2d_42", "class_name": "Conv2D"}, {"inbound_nodes": [[["conv2d_42", 0, 0, {}]]], "config": {"trainable": true, "name": "activation_42", "activation": "relu"}, "name": "activation_42", "class_name": "Activation"}, {"inbound_nodes": [[["activation_42", 0, 0, {}]]], "config": {"kernel_regularizer": null, "trainable": true, "strides": [1, 1], "kernel_constraint": null, "dilation_rate": [1, 1], "name": "conv2d_43", "use_bias": true, "activity_regularizer": null, "data_format": "channels_first", "activation": "linear", "kernel_size": [3, 3], "filters": 64, "bias_constraint": null, "padding": "same", "kernel_initializer": {"config": {"seed": null, "distribution": "uniform", "scale": 1.0, "mode": "fan_avg"}, "class_name": "VarianceScaling"}, "bias_regularizer": null, "bias_initializer": {"config": {}, "class_name": "Zeros"}}, "name": "conv2d_43", "class_name": "Conv2D"}, {"inbound_nodes": [[["merge_19", 0, 0, {"mask": [null, null]}], ["conv2d_43", 0, 0, {"mask": [null, null]}]]], "config": {"dot_axes": -1, "name": "merge_20", "mode": "sum", "output_shape_type": "raw", "concat_axis": -1, "output_shape": null, "mode_type": "raw", "arguments": {}, "output_mask_type": "raw", "output_mask": null}, "name": "merge_20", "class_name": "Merge"}, {"inbound_nodes": [[["merge_20", 0, 0, {}]]], "config": {"trainable": true, "name": "activation_43", "activation": "relu"}, "name": "activation_43", "class_name": "Activation"}, {"inbound_nodes": [[["activation_43", 0, 0, {}]]], "config": {"kernel_regularizer": null, "trainable": true, "strides": [1, 1], "kernel_constraint": null, "dilation_rate": [1, 1], "name": "conv2d_44", "use_bias": true, "activity_regularizer": null, "data_format": "channels_first", "activation": "linear", "kernel_size": [3, 3], "filters": 64, "bias_constraint": null, "padding": "same", "kernel_initializer": {"config": {"seed": null, "distribution": "uniform", "scale": 1.0, "mode": "fan_avg"}, "class_name": "VarianceScaling"}, "bias_regularizer": null, "bias_initializer": {"config": {}, "class_name": "Zeros"}}, "name": "conv2d_44", "class_name": "Conv2D"}, {"inbound_nodes": [[["conv2d_44", 0, 0, {}]]], "config": {"trainable": true, "name": "activation_44", "activation": "relu"}, "name": "activation_44", "class_name": "Activation"}, {"inbound_nodes": [[["activation_44", 0, 0, {}]]], "config": {"kernel_regularizer": null, "trainable": true, "strides": [1, 1], "kernel_constraint": null, "dilation_rate": [1, 1], "name": "conv2d_45", "use_bias": true, "activity_regularizer": null, "data_format": "channels_first", "activation": "linear", "kernel_size": [3, 3], "filters": 64, "bias_constraint": null, "padding": "same", "kernel_initializer": {"config": {"seed": null, "distribution": "uniform", "scale": 1.0, "mode": "fan_avg"}, "class_name": "VarianceScaling"}, "bias_regularizer": null, "bias_initializer": {"config": {}, "class_name": "Zeros"}}, "name": "conv2d_45", "class_name": "Conv2D"}, {"inbound_nodes": [[["merge_20", 0, 0, {"mask": [null, null]}], ["conv2d_45", 0, 0, {"mask": [null, null]}]]], "config": {"dot_axes": -1, "name": "merge_21", "mode": "sum", "output_shape_type": "raw", "concat_axis": -1, "output_shape": null, "mode_type": "raw", "arguments": {}, "output_mask_type": "raw", "output_mask": null}, "name": "merge_21", "class_name": "Merge"}, {"inbound_nodes": [[["merge_21", 0, 0, {}]]], "config": {"trainable": true, "name": "activation_45", "activation": "relu"}, "name": "activation_45", "class_name": "Activation"}, {"inbound_nodes": [[["activation_45", 0, 0, {}]]], "config": {"kernel_regularizer": null, "trainable": true, "strides": [1, 1], "kernel_constraint": null, "dilation_rate": [1, 1], "name": "conv2d_46", "use_bias": true, "activity_regularizer": null, "data_format": "channels_first", "activation": "linear", "kernel_size": [3, 3], "filters": 64, "bias_constraint": null, "padding": "same", "kernel_initializer": {"config": {"seed": null, "distribution": "uniform", "scale": 1.0, "mode": "fan_avg"}, "class_name": "VarianceScaling"}, "bias_regularizer": null, "bias_initializer": {"config": {}, "class_name": "Zeros"}}, "name": "conv2d_46", "class_name": "Conv2D"}, {"inbound_nodes": [[["conv2d_46", 0, 0, {}]]], "config": {"trainable": true, "name": "activation_46", "activation": "relu"}, "name": "activation_46", "class_name": "Activation"}, {"inbound_nodes": [[["activation_46", 0, 0, {}]]], "config": {"kernel_regularizer": null, "trainable": true, "strides": [1, 1], "kernel_constraint": null, "dilation_rate": [1, 1], "name": "conv2d_47", "use_bias": true, "activity_regularizer": null, "data_format": "channels_first", "activation": "linear", "kernel_size": [3, 3], "filters": 64, "bias_constraint": null, "padding": "same", "kernel_initializer": {"config": {"seed": null, "distribution": "uniform", "scale": 1.0, "mode": "fan_avg"}, "class_name": "VarianceScaling"}, "bias_regularizer": null, "bias_initializer": {"config": {}, "class_name": "Zeros"}}, "name": "conv2d_47", "class_name": "Conv2D"}, {"inbound_nodes": [[["merge_21", 0, 0, {"mask": [null, null]}], ["conv2d_47", 0, 0, {"mask": [null, null]}]]], "config": {"dot_axes": -1, "name": "merge_22", "mode": "sum", "output_shape_type": "raw", "concat_axis": -1, "output_shape": null, "mode_type": "raw", "arguments": {}, "output_mask_type": "raw", "output_mask": null}, "name": "merge_22", "class_name": "Merge"}, {"inbound_nodes": [[["merge_22", 0, 0, {}]]], "config": {"trainable": true, "name": "activation_47", "activation": "relu"}, "name": "activation_47", "class_name": "Activation"}, {"inbound_nodes": [[["activation_47", 0, 0, {}]]], "config": {"kernel_regularizer": null, "trainable": true, "strides": [1, 1], "kernel_constraint": null, "dilation_rate": [1, 1], "name": "conv2d_48", "use_bias": true, "activity_regularizer": null, "data_format": "channels_first", "activation": "linear", "kernel_size": [3, 3], "filters": 64, "bias_constraint": null, "padding": "same", "kernel_initializer": {"config": {"seed": null, "distribution": "uniform", "scale": 1.0, "mode": "fan_avg"}, "class_name": "VarianceScaling"}, "bias_regularizer": null, "bias_initializer": {"config": {}, "class_name": "Zeros"}}, "name": "conv2d_48", "class_name": "Conv2D"}, {"inbound_nodes": [[["conv2d_48", 0, 0, {}]]], "config": {"trainable": true, "name": "activation_48", "activation": "relu"}, "name": "activation_48", "class_name": "Activation"}, {"inbound_nodes": [[["activation_48", 0, 0, {}]]], "config": {"kernel_regularizer": null, "trainable": true, "strides": [1, 1], "kernel_constraint": null, "dilation_rate": [1, 1], "name": "conv2d_49", "use_bias": true, "activity_regularizer": null, "data_format": "channels_first", "activation": "linear", "kernel_size": [3, 3], "filters": 64, "bias_constraint": null, "padding": "same", "kernel_initializer": {"config": {"seed": null, "distribution": "uniform", "scale": 1.0, "mode": "fan_avg"}, "class_name": "VarianceScaling"}, "bias_regularizer": null, "bias_initializer": {"config": {}, "class_name": "Zeros"}}, "name": "conv2d_49", "class_name": "Conv2D"}, {"inbound_nodes": [[["merge_22", 0, 0, {"mask": [null, null]}], ["conv2d_49", 0, 0, {"mask": [null, null]}]]], "config": {"dot_axes": -1, "name": "merge_23", "mode": "sum", "output_shape_type": "raw", "concat_axis": -1, "output_shape": null, "mode_type": "raw", "arguments": {}, "output_mask_type": "raw", "output_mask": null}, "name": "merge_23", "class_name": "Merge"}, {"inbound_nodes": [[["merge_23", 0, 0, {}]]], "config": {"trainable": true, "name": "activation_49", "activation": "relu"}, "name": "activation_49", "class_name": "Activation"}, {"inbound_nodes": [[["activation_49", 0, 0, {}]]], "config": {"kernel_regularizer": null, "trainable": true, "strides": [1, 1], "kernel_constraint": null, "dilation_rate": [1, 1], "name": "conv2d_50", "use_bias": true, "activity_regularizer": null, "data_format": "channels_first", "activation": "linear", "kernel_size": [3, 3], "filters": 64, "bias_constraint": null, "padding": "same", "kernel_initializer": {"config": {"seed": null, "distribution": "uniform", "scale": 1.0, "mode": "fan_avg"}, "class_name": "VarianceScaling"}, "bias_regularizer": null, "bias_initializer": {"config": {}, "class_name": "Zeros"}}, "name": "conv2d_50", "class_name": "Conv2D"}, {"inbound_nodes": [[["conv2d_50", 0, 0, {}]]], "config": {"trainable": true, "name": "activation_50", "activation": "relu"}, "name": "activation_50", "class_name": "Activation"}, {"inbound_nodes": [[["activation_50", 0, 0, {}]]], "config": {"kernel_regularizer": null, "trainable": true, "strides": [1, 1], "kernel_constraint": null, "dilation_rate": [1, 1], "name": "conv2d_51", "use_bias": true, "activity_regularizer": null, "data_format": "channels_first", "activation": "linear", "kernel_size": [3, 3], "filters": 64, "bias_constraint": null, "padding": "same", "kernel_initializer": {"config": {"seed": null, "distribution": "uniform", "scale": 1.0, "mode": "fan_avg"}, "class_name": "VarianceScaling"}, "bias_regularizer": null, "bias_initializer": {"config": {}, "class_name": "Zeros"}}, "name": "conv2d_51", "class_name": "Conv2D"}, {"inbound_nodes": [[["merge_23", 0, 0, {"mask": [null, null]}], ["conv2d_51", 0, 0, {"mask": [null, null]}]]], "config": {"dot_axes": -1, "name": "merge_24", "mode": "sum", "output_shape_type": "raw", "concat_axis": -1, "output_shape": null, "mode_type": "raw", "arguments": {}, "output_mask_type": "raw", "output_mask": null}, "name": "merge_24", "class_name": "Merge"}, {"inbound_nodes": [[["merge_24", 0, 0, {}]]], "config": {"trainable": true, "name": "activation_51", "activation": "relu"}, "name": "activation_51", "class_name": "Activation"}, {"inbound_nodes": [[["activation_51", 0, 0, {}]]], "config": {"kernel_regularizer": null, "trainable": true, "strides": [1, 1], "kernel_constraint": null, "dilation_rate": [1, 1], "name": "conv2d_52", "use_bias": true, "activity_regularizer": null, "data_format": "channels_first", "activation": "linear", "kernel_size": [3, 3], "filters": 1, "bias_constraint": null, "padding": "same", "kernel_initializer": {"config": {"seed": null, "distribution": "uniform", "scale": 1.0, "mode": "fan_avg"}, "class_name": "VarianceScaling"}, "bias_regularizer": null, "bias_initializer": {"config": {}, "class_name": "Zeros"}}, "name": "conv2d_52", "class_name": "Conv2D"}, {"inbound_nodes": [[["conv2d_52", 0, 0, {}]]], "config": {"trainable": true, "name": "activation_52", "activation": "tanh"}, "name": "activation_52", "class_name": "Activation"}]}, "class_name": "Model", "keras_version": "2.0.2"}