{"keras_version": "2.0.4", "config": {"layers": [{"class_name": "InputLayer", "inbound_nodes": [], "name": "input_1", "config": {"sparse": false, "dtype": "float32", "batch_input_shape": [null, 3, 52, 52], "name": "input_1"}}, {"class_name": "Conv2D", "inbound_nodes": [[["input_1", 0, 0, {}]]], "name": "conv2d_1", "config": {"trainable": true, "bias_constraint": null, "name": "conv2d_1", "activity_regularizer": null, "bias_initializer": {"config": {}, "class_name": "Zeros"}, "bias_regularizer": null, "strides": [1, 1], "filters": 128, "kernel_size": [3, 3], "kernel_initializer": {"config": {"scale": 1.0, "seed": null, "distribution": "uniform", "mode": "fan_avg"}, "class_name": "VarianceScaling"}, "kernel_regularizer": null, "dilation_rate": [1, 1], "activation": "linear", "use_bias": true, "data_format": "channels_first", "padding": "same", "kernel_constraint": null}}, {"class_name": "Activation", "inbound_nodes": [[["conv2d_1", 0, 0, {}]]], "name": "activation_1", "config": {"trainable": true, "activation": "relu", "name": "activation_1"}}, {"class_name": "Conv2D", "inbound_nodes": [[["activation_1", 0, 0, {}]]], "name": "conv2d_2", "config": {"trainable": true, "bias_constraint": null, "name": "conv2d_2", "activity_regularizer": null, "bias_initializer": {"config": {}, "class_name": "Zeros"}, "bias_regularizer": null, "strides": [1, 1], "filters": 128, "kernel_size": [3, 3], "kernel_initializer": {"config": {"scale": 1.0, "seed": null, "distribution": "uniform", "mode": "fan_avg"}, "class_name": "VarianceScaling"}, "kernel_regularizer": null, "dilation_rate": [1, 1], "activation": "linear", "use_bias": true, "data_format": "channels_first", "padding": "same", "kernel_constraint": null}}, {"class_name": "Activation", "inbound_nodes": [[["conv2d_2", 0, 0, {}]]], "name": "activation_2", "config": {"trainable": true, "activation": "relu", "name": "activation_2"}}, {"class_name": "Conv2D", "inbound_nodes": [[["activation_2", 0, 0, {}]]], "name": "conv2d_3", "config": {"trainable": true, "bias_constraint": null, "name": "conv2d_3", "activity_regularizer": null, "bias_initializer": {"config": {}, "class_name": "Zeros"}, "bias_regularizer": null, "strides": [1, 1], "filters": 128, "kernel_size": [3, 3], "kernel_initializer": {"config": {"scale": 1.0, "seed": null, "distribution": "uniform", "mode": "fan_avg"}, "class_name": "VarianceScaling"}, "kernel_regularizer": null, "dilation_rate": [1, 1], "activation": "linear", "use_bias": true, "data_format": "channels_first", "padding": "same", "kernel_constraint": null}}, {"class_name": "Merge", "inbound_nodes": [[["conv2d_1", 0, 0, {"mask": [null, null]}], ["conv2d_3", 0, 0, {"mask": [null, null]}]]], "name": "merge_1", "config": {"concat_axis": -1, "output_shape": null, "output_mask": null, "name": "merge_1", "mode_type": "raw", "dot_axes": -1, "output_mask_type": "raw", "mode": "sum", "arguments": {}, "output_shape_type": "raw"}}, {"class_name": "Activation", "inbound_nodes": [[["merge_1", 0, 0, {}]]], "name": "activation_3", "config": {"trainable": true, "activation": "relu", "name": "activation_3"}}, {"class_name": "Conv2D", "inbound_nodes": [[["activation_3", 0, 0, {}]]], "name": "conv2d_4", "config": {"trainable": true, "bias_constraint": null, "name": "conv2d_4", "activity_regularizer": null, "bias_initializer": {"config": {}, "class_name": "Zeros"}, "bias_regularizer": null, "strides": [1, 1], "filters": 1, "kernel_size": [3, 3], "kernel_initializer": {"config": {"scale": 1.0, "seed": null, "distribution": "uniform", "mode": "fan_avg"}, "class_name": "VarianceScaling"}, "kernel_regularizer": null, "dilation_rate": [1, 1], "activation": "linear", "use_bias": true, "data_format": "channels_first", "padding": "same", "kernel_constraint": null}}, {"class_name": "Activation", "inbound_nodes": [[["conv2d_4", 0, 0, {}]]], "name": "activation_4", "config": {"trainable": true, "activation": "tanh", "name": "activation_4"}}], "input_layers": [["input_1", 0, 0]], "name": "model_1", "output_layers": [["activation_4", 0, 0]]}, "backend": "tensorflow", "class_name": "Model"}